…
    )\n\n    def forward(self, x):\n        x = self.layers(x)\n        x = x.squeeze(1) # (B, 1) -&gt; (B)\n        return x\n</code></pre> Architecture <ul> <li>\u4f7f\u7528\u4ee5\u4e0b\u547d\u4ee4\u6765\u67e5\u770b\u7f51\u7edc\u67b6\u6784</li> </ul> <pre><code>from torchsummary import summary\nsummary(model, input_size=(input_dim,))\n</code></pre> <pre><code>----------------------------------------------------------------\n        Layer (type)               Output Shape         Param #\n================================================================\n            Linear-1                   [-1, 32]             672\n         LeakyReLU-2                   [-1, 32]               0\n            Linear-3                   [-1, 16]             528\n         LeakyReLU-4                   [-1, 16]               0\n            Linear-5                    [-1, 8]             136\n         LeakyReLU-6                    [-1, 8]               0\n            Linear-7                    [-1, 1]               9\n================================================================\nTotal params: 1,345\nTrainable params: 1,345\nNon-trainable params: 0\n----------------------------------------------------------------\nInput size (MB): 0.00\nForward/backward pass size (MB): 0.00\nParams size (MB): 0.01\nEstimated Total Size (MB): 0.01\n----------------------------------------------------------------\n</code></p
…
